…
rchinfo.summary( transformer_model, input_size=((10,32,512), (20,32,512)), col_names=[\u0026#34;input_size\u0026#34;, \u0026#34;output_size\u0026#34;, \u0026#34;num_params\u0026#34;, \u0026#34;trainable\u0026#34;] ) ================================================================================================================================================= Layer (type:depth-idx) Input Shape Output Shape Param # Trainable ================================================================================================================================================= Transformer [10, 32, 512] [20, 32, 512] -- True ├─TransformerEncoder: 1-1 [10, 32, 512] [10, 32, 512] -- True │ └─ModuleList: 2-1 -- -- -- True │ │ └─TransformerEncoderLayer: 3-1 [10, 32, 512] [10, 32, 512] 3,152,384 True │ │ └─TransformerEncoderLayer: 3-2 [10, 32, 512] [10, 32, 512] 3,152,384 True │ └─LayerNorm: 2-2 [10, 32, 512] [10, 32, 512] 1,024 True ├─TransformerDecoder: 1-2 [20, 32, 512] [20, 32, 512] -- True │ └─ModuleList: 2-3 -- -- -- True │ │ └─TransformerDecoderLayer: 3-3 [20, 32, 512] [20, 32, 512] 4,204,032 True │ │ └─TransformerDecoderLayer: 3-4 [20, 32, 512] [20, 32, 512] 4,204,032 True │ └─LayerNorm: 2-4 [20, 32, 512] [20, 32, 512] 1,024 True ================================================================================================================================================= Total params: 14,714,880 Trainable params: 14,714,880 Non-trainable params: 0 Total mult-adds (Units.MEGABYTES): 126.18 ================================================================================================================================
…
